…
WARNING:tensorflow:From /usr/local/lib/python3.6/dist-packages/keras/backend/tensorflow_backend.py:973: The name tf.assign is deprecated. Please use tf.compat.v1.assign instead.

WARNING: From /usr/local/lib/python3.6/dist-packages/keras/backend/tensorflow_backend.py:973: The name tf.assign is deprecated. Please use tf.compat.v1.assign instead.

__________________________________________________________________________________________________
Layer (type)                    Output Shape         Param #     Connected to
==================================================================================================
input_1 (InputLayer)            (None, 3, 224, 224)  0
__________________________________________________________________________________________________
conv1 (Conv2D)                  (None, 64, 112, 112) 9408        input_1[0][0]
__________________________________________________________________________________________________
bn_conv1 (BatchNormalization)   (None, 64, 112, 112) 256         conv1[0][0]
__________________________________________________________________________________________________
activation_1 (Activation)       (None, 64, 112, 112) 0           bn_conv1[0][0]
__________________________________________________________________________________________________
max_pooling2d_1 (MaxPooling2D)  (None, 64, 56, 56)   0           activation_1[0][0]
__________________________________________________________________________________________________
block_1a_conv_1 (Conv2D)        (None, 64, 56, 56)   36864       max_pooling2d_1[0][0]
__________________________________________________________________________________________________
block_1a_bn_1 (BatchNormalizati (None, 64, 56, 56)   256         block_1a_conv_1[0][0]
__________________________________________________________________________________________________
block_1a_relu_1 (Activation)    (None, 64, 56, 56)   0           block_1a_bn_1[0][0]
__________________________________________________________________________________________________
block_1a_conv_2 (Conv2D)        (None, 64, 56, 56)   36864       block_1a_relu_1[0][0]
__________________________________________________________________________________________________
block_1a_conv_shortcut (Conv2D) (None, 64, 56, 56)   4096        max_pooling2d_1[0][0]
__________________________________________________________________________________________________
block_1a_bn_2 (BatchNormalizati (None, 64, 56, 56)   256         block_1a_conv_2[0][0]
__________________________________________________________________________________________________
block_1a_bn_shortcut (BatchNorm (None, 64, 56, 56)   256         block_1a_conv_shortcut[0][0]
__________________________________________________________________________________________________
add_1 (Add)                     (None, 64, 56, 56)   0           block_1a_bn_2[0][0]
                                                                 block_1a_bn_shortcut[0][0]
__________________________________________________________________________________________________
block_1a_relu (Activation)      (None, 64, 56, 56)   0           add_1[0][0]
__________________________________________________________________________________________________
block_1b_conv_1 (Conv2D)        (None, 64, 56, 56)   36864       block_1a_relu[0][0]
__________________________________________________________________________________________________
block_1b_bn_1 (BatchNormalizati (None, 64, 56, 56)   256         block_1b_conv_1[0][0]
__________________________________________________________________________________________________
block_1b_relu_1 (Activation)    (None, 64, 56, 56)   0           block_1b_bn_1[0][0]
__________________________________________________________________________________________________
block_1b_conv_2 (Conv2D)        (None, 64, 56, 56)   36864       block_1b_relu_1[0][0]
__________________________________________________________________________________________________
block_1b_bn_2 (BatchNormalizati (None, 64, 56, 56)   256         block_1b_conv_2[0][0]
__________________________________________________________________________________________________
add_2 (Add)                     (None, 64, 56, 56)   0           block_1b_bn_2[0][0]
                                                                 block_1a_relu[0][0]
__________________________________________________________________________________________________
block_1b_relu (Activation)      (None, 64, 56, 56)   0           add_2[0][0]
__________________________________________________________________________________________________
block_2a_conv_1 (Conv2D)        (None, 128, 28, 28)  73728       block_1b_relu[0][0]
__________________________________________________________________________________________________
block_2a_bn_1 (BatchNormalizati (None, 128, 28, 28)  512         block_2a_conv_1[0][0]
__________________________________________________________________________________________________
block_2a_relu_1 (Activation)    (None, 128, 28, 28)  0           block_2a_bn_1[0][0]
__________________________________________________________________________________________________
block_2a_conv_2 (Conv2D)        (None, 128, 28, 28)  147456      block_2a_relu_1[0][0]
__________________________________________________________________________________________________
block_2a_conv_shortcut (Conv2D) (None, 128, 28, 28)  8192        block_1b_relu[0][0]
__________________________________________________________________________________________________
block_2a_bn_2 (BatchNormalizati (None, 128, 28, 28)  512         block_2a_conv_2[0][0]
__________________________________________________________________________________________________
block_2a_bn_shortcut (BatchNorm (None, 128, 28, 28)  512         block_2a_conv_shortcut[0][0]
__________________________________________________________________________________________________
add_3 (Add)                     (None, 128, 28, 28)  0           block_2a_bn_2[0][0]
                                                                 block_2a_bn_shortcut[0][0]
__________________________________________________________________________________________________
block_2a_relu (Activation)      (None, 128, 28, 28)  0           add_3[0][0]
__________________________________________________________________________________________________
block_2b_conv_1 (Conv2D)        (None, 128, 28, 28)  147456      block_2a_relu[0][0]
__________________________________________________________________________________________________
block_2b_bn_1 (BatchNormalizati (None, 128, 28, 28)  512         block_2b_conv_1[0][0]
__________________________________________________________________________________________________
block_2b_relu_1 (Activation)    (None, 128, 28, 28)  0           block_2b_bn_1[0][0]
__________________________________________________________________________________________________
block_2b_conv_2 (Conv2D)        (None, 128, 28, 28)  147456      block_2b_relu_1[0][0]
__________________________________________________________________________________________________
block_2b_bn_2 (BatchNormalizati (None, 128, 28, 28)  512         block_2b_conv_2[0][0]
__________________________________________________________________________________________________
add_4 (Add)                     (None, 128, 28, 28)  0           block_2b_bn_2[0][0]
                                                                 block_2a_relu[0][0]
__________________________________________________________________________________________________
block_2b_relu (Activation)      (None, 128, 28, 28)  0           add_4[0][0]
__________________________________________________________________________________________________
block_3a_conv_1 (Conv2D)        (None, 256, 14, 14)  294912      block_2b_relu[0][0]
__________________________________________________________________________________________________INFO: Processing dataset (evaluation): /home/saiteja/DetectTechWork/New Masks Dataset/test
INFO: Calculating per-class P/R and confusion matrix. It may take a while...

block_3a_bn_1 (BatchNormalizati (None, 256, 14, 14)  1024        block_3a_conv_1[0][0]
__________________________________________________________________________________________________
block_3a_relu_1 (Activation)    (None, 256, 14, 14)  0           block_3a_bn_1[0][0]
__________________________________________________________________________________________________
block_3a_conv_2 (Conv2D)        (None, 256, 14, 14)  589824      block_3a_relu_1[0][0]
__________________________________________________________________________________________________
block_3a_conv_shortcut (Conv2D) (None, 256, 14, 14)  32768       block_2b_relu[0][0]
__________________________________________________________________________________________________
block_3a_bn_2 (BatchNormalizati (None, 256, 14, 14)  1024        block_3a_conv_2[0][0]
__________________________________________________________________________________________________
block_3a_bn_shortcut (BatchNorm (None, 256, 14, 14)  1024        block_3a_conv_shortcut[0][0]
__________________________________________________________________________________________________
add_5 (Add)                     (None, 256, 14, 14)  0           block_3a_bn_2[0][0]
                                                                 block_3a_bn_shortcut[0][0]
__________________________________________________________________________________________________
block_3a_relu (Activation)      (None, 256, 14, 14)  0           add_5[0][0]
__________________________________________________________________________________________________
block_3b_conv_1 (Conv2D)        (None, 256, 14, 14)  589824      block_3a_relu[0][0]
__________________________________________________________________________________________________
block_3b_bn_1 (BatchNormalizati (None, 256, 14, 14)  1024        block_3b_conv_1[0][0]
__________________________________________________________________________________________________
block_3b_relu_1 (Activation)    (None, 256, 14, 14)  0           block_3b_bn_1[0][0]
__________________________________________________________________________________________________
block_3b_conv_2 (Conv2D)        (None, 256, 14, 14)  589824      block_3b_relu_1[0][0]
__________________________________________________________________________________________________
block_3b_bn_2 (BatchNormalizati (None, 256, 14, 14)  1024        block_3b_conv_2[0][0]
__________________________________________________________________________________________________
add_6 (Add)                     (None, 256, 14, 14)  0           block_3b_bn_2[0][0]
                                                                 block_3a_relu[0][0]
__________________________________________________________________________________________________
block_3b_relu (Activation)      (None, 256, 14, 14)  0           add_6[0][0]
__________________________________________________________________________________________________
block_4a_conv_1 (Conv2D)        (None, 512, 7, 7)    1179648     block_3b_relu[0][0]
__________________________________________________________________________________________________
block_4a_bn_1 (BatchNormalizati (None, 512, 7, 7)    2048        block_4a_conv_1[0][0]
__________________________________________________________________________________________________
block_4a_relu_1 (Activation)    (None, 512, 7, 7)    0           block_4a_bn_1[0][0]
__________________________________________________________________________________________________
block_4a_conv_2 (Conv2D)        (None, 512, 7, 7)    2359296     block_4a_relu_1[0][0]
__________________________________________________________________________________________________
block_4a_conv_shortcut (Conv2D) (None, 512, 7, 7)    131072      block_3b_relu[0][0]
__________________________________________________________________________________________________
block_4a_bn_2 (BatchNormalizati (None, 512, 7, 7)    2048        block_4a_conv_2[0][0]
__________________________________________________________________________________________________
block_4a_bn_shortcut (BatchNorm (None, 512, 7, 7)    2048        block_4a_conv_shortcut[0][0]
__________________________________________________________________________________________________
add_7 (Add)                     (None, 512, 7, 7)    0           block_4a_bn_2[0][0]
                                                                 block_4a_bn_shortcut[0][0]
__________________________________________________________________________________________________
block_4a_relu (Activation)      (None, 512, 7, 7)    0           add_7[0][0]
__________________________________________________________________________________________________
block_4b_conv_1 (Conv2D)        (None, 512, 7, 7)    2359296     block_4a_relu[0][0]
__________________________________________________________________________________________________
block_4b_bn_1 (BatchNormalizati (None, 512, 7, 7)    2048        block_4b_conv_1[0][0]
__________________________________________________________________________________________________
block_4b_relu_1 (Activation)    (None, 512, 7, 7)    0           block_4b_bn_1[0][0]
__________________________________________________________________________________________________
block_4b_conv_2 (Conv2D)        (None, 512, 7, 7)    2359296     block_4b_relu_1[0][0]
__________________________________________________________________________________________________
block_4b_bn_2 (BatchNormalizati (None, 512, 7, 7)    2048        block_4b_conv_2[0][0]
__________________________________________________________________________________________________
add_8 (Add)                     (None, 512, 7, 7)    0           block_4b_bn_2[0][0]
                                                                 block_4a_relu[0][0]
__________________________________________________________________________________________________
block_4b_relu (Activation)      (None, 512, 7, 7)    0           add_8[0][0]
__________________________________________________________________________________________________
average_pooling2d_1 (AveragePoo (None, 512, 1, 1)    0           block_4b_relu[0][0]
__________________________________________________________________________________________________
avg_pool (AveragePooling2D)     (None, 512, 1, 1)    0           average_pooling2d_1[0][0]
__________________________________________________________________________________________________
flatten (Flatten)               (None, 512)          0           avg_pool[0][0]
__________________________________________________________________________________________________
predictions (Dense)             (None, 2)            1026        flatten[0][0]
==================================================================================================
Total params: 11,191,490
Trainable params: 11,181,762
Non-trainable params: 9,728
__________________________________________________________________________________________________
Found 100 images belonging to 2 classes.
Evaluation Loss: 0.31283435225486755
Evaluation Top K accuracy: 1.0
…
